lunar_lander/latest_lunar_model.tar (torch_old, 6158 bytes, 7 tensors)

weight f4 [16, 8]
1.4657625 -0.12501833 0.024084084 1.297508 -0.30400515 2.8850095 -9.79579 0.4800879
-0.2635324 4.700583 2.0046122 1.2745155 -0.54144055 0.85246265 -5.21483 -1.2509413
2.3269694 0.65378404 3.013062 4.263438 -4.2155066 -2.6930013 0.5769968 -4.3718123
-1.7212973 1.3947487 -1.0865747 -2.9975455 2.943763 1.3632638 3.029075 0.28097135
1.4429181 1.8830073 -0.66257054 -5.315709 -0.86676997 -0.708304 -0.96206224 0.24876988
-0.08266691 -3.5626714 -0.52607334 2.494364 -0.8952312 -0.46764883 4.140975 -0.82231957
-1.8340582 6.0274343 -0.3472983 6.4403687 0.3041687 -0.52821714 -0.23151106 -0.20273387
-1.0976756 0.40254718 -1.0391445 0.26041907 0.36749378 0.15642475 4.253644 -1.0065662
-1.9309276 2.2049532 1.1459519 3.3652537 -3.9127192 5.5481997 -3.3338487 0.5704517
-1.3382459 0.43115774 -0.76492125 -1.28782 -2.1827185 3.3978102 3.6724598 -5.2214704
0.30860546 -0.2209293 0.5529635 7.064776 -1.3897444 -2.9645927 -3.0287442 3.5197651
1.0301874 0.3674014 -1.9669056 1.0174035 1.8550225 0.18186818 2.711842 -6.8141437
0.42653114 -0.80280364 -0.54399496 -1.2575264 1.1557734 0.55675584 -2.4689577 0.007612789
0.523091 3.679746 -0.5531594 0.17226051 -2.7385783 0.5657366 0.87955594 -0.84875876
-0.4258941 -0.047939688 -0.1918289 0.17132482 -6.587448 -0.25741354 -5.868409 -4.8452
1.2260929 -1.3190012 -0.5472616 -0.8740404 -1.5799735 -1.5942143 -2.0593107 1.9117563
00000000: 1b9e bb3f ce04 00be fc4b c53c be14 a63f
00000010: 90a6 9bbe ffa3 3840 8ebb 1cc1 15ce f53e
00000020: b8ed 86be 2d6b 9640 914b 0040 5323 a33f
00000030: d99b 0abf fe3a 5a3f e3df a6c0 d81e a0bf
00000040: 11ed 1440 645e 273f 02d6 4040 166e 8840
00000050: 6ee5 86c0 225a 2cc0 10b6 133f e3e5 8bc0
00000060: 7853 dcbf 2087 b23f e114 8bbf c9d7 3fc0
00000070: 9d66 3c40 6e7f ae3f 5ddc 4140 7adb 8f3e
00000080: 8ab1 b83f 6206 f13f 399e 29bf 4a1a aac0
00000090: a3e4 5dbf 6953 35bf b649 76bf 88bd 7e3e
000000a0: 454d a9bd cf02 64c0 beac 06bf a9a3 1f40
000000b0: df2d 65bf ab6f efbe de82 8440 8983 52bf
000000c0: 6bc2 eabf bee0 c040 15d1 b1be 8017 ce40
000000d0: 00bc 9b3e 3d39 07bf 3c11 6dbe 7899 4fbe
000000e0: a280 8cbf aa1a ce3e b002 85bf a655 853e
000000f0: 2528 bc3e cf2d 203e da1d 8840 29d7 80bf
00000100: a328 f7bf f41d 0d40 8dae 923f 5160 5740
00000110: fe69 7ac0 da8a b140 c75d 55c0 1f09 123f
00000120: a44b abbf b5c0 dc3e e1d1 43bf 49d7 a4bf
00000130: a9b1 0bc0 b975 5940 9509 6b40 4916 a7c0
00000140: 8901 9e3e 4a3b 62be 048f 0d3f a512 e240
00000150: 25e3 b1bf e3bb 3dc0 f2d6 41c0 d543 6140
00000160: 2edd 833f 091c bc3e 90c3 fbbf 473a 823f
00000170: 6171 ed3f a73b 3a3e d28e 2d40 770d dac0
00000180: 4a62 da3e 8a84 4dbf 4143 0bbf a0f6 a0bf
00000190: 62f0 933f 8d87 0e3f 6703 1ec0 b474 f93b
000001a0: 4be9 053f f580 6b40 db9b 0dbf 0f65 303e
000001b0: de44 2fc0 1dd4 103f 942a 613f 4148 59bf
000001c0: cb0e dabe 685c 44bd cc6e 44be c66f 2f3e
000001d0: 60cc d2c0 b5cb 83be 02ca bbc0 e10b 9bc0
000001e0: 9df0 9c3f 08d5 a8bf 5619 0cbf 1dc1 5fbf
000001f0: 923c cabf 370f ccbf bfcb 03c0 6eb4 f43f

bias f4 [16]
1.2017378 -0.5247318 -4.501601 0.34855595 -0.045512874 -0.9587409 0.49810866 -0.66487795
-4.335271 -3.2374027 -0.77169776 0.26697904 1.8193532 0.4695581 -0.16292234 1.7449591
00000000: 8bd2 993f d354 06bf 1e0d 90c0 ed75 b23e
00000010: b56b 3abd 0b70 75bf 1908 ff3e 7135 2abf
00000020: 8aba 8ac0 9b31 4fc0 fc8d 45bf 7ab1 883e
00000030: 91e0 e83f eb69 f03e 1dd5 26be d25a df3f

weight f4 [16, 16]
-1.1455716 4.065068 1.5558187 -2.1732152 -4.2018795 -15.984748 0.2947808 -1.6031266
2.052108 -2.7463372 -4.2617016 -5.014964 0.3610341 -3.5412557 -2.1641626 2.0790892
-0.778246 1.0780395 -2.684648 -2.565383 -6.8517528 2.4068725 0.4547006 1.759584
-0.6899562 -0.35982502 -1.365491 -10.96403 -0.21944842 -4.116694 4.114579 -4.04862
1.4801236 -1.743972 -2.0527158 -1.1614276 2.890899 2.3748326 2.5302367 -1.7842073
-0.49576426 -2.1419513 -1.8076122 1.4887074 -0.90809464 -4.3221183 -10.818674 0.59442717
-2.7882338 0.33657998 3.8202658 1.680813 -4.180487 -12.501056 -2.3882127 -10.591541
1.007637 -3.1646416 -0.26224262 -0.48575175 -2.3140357 5.8250947 -3.3878133 -1.3420134
-3.6610167 1.1996783 4.3448634 4.7468433 0.64086103 -27.436655 1.4777381 -3.9312644
-2.1338198 -0.01056441 -0.8911647 -5.1954885 3.554554 -0.4372657 0.51525897 0.79925853
-4.5102334 2.87117 1.5153393 1.1773676 2.447442 -7.3537145 2.0280821 -3.4154103
-3.300001 -2.005516 1.8266045 1.7684001 -0.10591887 2.7866035 -0.5824108 -2.2077534
-2.9987733 4.7552986 -0.5971956 -0.8361433 -1.2279807 1.6630185 -1.1357919 3.0952713
2.222464 2.268368 0.21950802 0.24685732 2.9257865 -3.2783766 0.39444184 -1.4645486
0.35019392 -0.5467456 -4.406084 -0.57203805 1.5909728 0.72365266 1.0686517 -3.3386173
0.24621864 -4.0292983 -1.3475559 -2.5960944 -0.10928738 -0.9735422 0.52349204 -0.6669724
-1.5714394 -0.9300147 -7.9626718 -0.6172366 -1.1818428 0.8362077 -1.2468815 -1.2505383
0.9076633 -0.8502535 0.30200282 -0.3937521 1.6860067 2.2620425 0.33123738 1.3969808
1.8193359 -0.17014363 -3.4658651 3.3733802 0.60540366 -7.1739726 -0.23878537 3.387018
1.2887957 2.0250592 3.7988944 0.3019161 -0.534832 -3.1091492 3.9163837 -2.6766396
0.64976466 5.379679 -3.7929444 -2.3251112 2.8136368 -28.358053 0.59618837 -8.279472
-1.6564193 -10.288708 1.5534178 -17.938257 -3.9368813 -8.377459 5.382422 1.0739827
-3.6790748 -3.5676157 0.33021125 -0.7925203 -1.7891122 -5.651568 0.30087677 -3.6640325
-4.545676 -4.0292344 1.7623916 4.046176 1.6906648 3.4755228 0.37741044 -6.528724
-1.9123926 -2.494824 -7.317329 0.48168892 1.9957551 5.340912 6.5552363 -6.0886116
0.7098642 -4.843858 -1.6077313 -4.2686405 -3.5054402 -3.3084416 2.0721085 3.686732
-14.052634 0.5843403 1.8413646 0.048339013 3.7379484 1.3868794 -2.7144632 -0.8863342
-2.3560684 2.5910652 -8.3571825 1.6317074 -3.843136 -0.7896731 -2.2450655 -0.084772326
-2.5427887 -1.619931 7.457712 0.7025103 -0.72973174 -6.5488286 0.9109319 1.3789333
0.81291175 3.3582928 0.14708634 2.2080173 0.9357737 -0.28009024 -0.081201635 -0.844924
-0.8544592 -0.09806846 3.975419 -2.413263 6.5976667 4.4171352 3.2355025 1.3228836
-6.4850626 0.8822154 -1.422663 0.45008534 0.6100356 0.258492 -0.6665777 1.3297906
00000000: 17a2 92bf 0915 8240 1125 c73f f515 0bc0
00000010: cc75 86c0 87c1 7fc1 82ed 963e 4133 cdbf
00000020: bd55 0340 fdc3 2fc0 dc5f 88c0 967a a0c0
00000030: 76d9 b83e efa3 62c0 a481 0ac0 cc0f 0540
00000040: 213b 47bf 33fd 893f 46d1 2bc0 3c2f 24c0
00000050: 8f41 dbc0 330a 1a40 84ce e83e 0c3a e13f
00000060: f8a0 30bf fc3a b8be 69c8 aebf ab6c 2fc1
00000070: 16b7 60be f5bb 83c0 a2aa 8340 4c8e 81c0
00000080: b174 bd3f 793a dfbf b25f 03c0 a9a9 94bf
00000090: 7d04 3940 42fd 1740 66ef 2140 e860 e4bf
000000a0: d0d4 fdbe bb15 09c0 d65f e7bf f78d be3f
000000b0: e478 68bf cb4e 8ac0 4a19 2dc1 612c 183f
000000c0: 6c72 32c0 3654 ac3e 3c7f 7440 e124 d73f
000000d0: 8dc6 85c0 5304 48c1 7ad8 18c0 f476 29c1
000000e0: 40fa 803f 7d89 4ac0 aa44 86be 74b4 f8be
000000f0: 2919 14c0 2d67 ba40 efd1 58c0 18c7 abbf
00000100: 194e 6ac0 0f8f 993f 1f09 8b40 24e6 9740
00000110: 780f 243f 457e dbc1 8626 bd3f d699 7bc0
00000120: 8190 08c0 5916 2dbc 5f23 64bf 7141 a6c0
00000130: d07d 6340 4ae1 dfbe 03e8 033f 359c 4c3f
00000140: d553 90c0 40c1 3740 a3f6 c13f fbb3 963f
00000150: e4a2 1c40 a151 ebc0 19cc 0140 1596 5ac0
00000160: 3733 53c0 605a 00c0 2dce e93f ef5a e23f
00000170: feeb d8bd b657 3240 e018 15bf d54b 0dc0
00000180: e7eb 3fc0 682b 9840 d0e1 18bf 7d0d 56bf
00000190: 792e 9dbf cadd d43f a161 91bf ed18 4640
000001a0: da3c 0e40 f12c 1140 b6c6 603e 2ac8 7c3e
000001b0: 1640 3b40 ecd0 51c0 48f4 c93e 5476 bbbf
000001c0: 9e4c b33e 85f7 0bbf a4fe 8cc0 1671 12bf
000001d0: ffa4 cb3f 4d41 393f 94c9 883f e8ab 55c0
000001e0: bd20 7c3e 03f0 80c0 b67c acbf 6926 26c0
000001f0: 10d2 dfbd 103a 79bf 9303 063f b4be 2abf
00000200: ed24 c9bf 7215 6ebf 35ce fec0 3803 1ebf
00000210: a046 97bf b511 563f d099 9fbf a411 a0bf
00000220: 9f5c 683f 37aa 59bf 1da0 9a3e e099 c9be
00000230: 11cf d73f 4ec5 1040 f297 a93e 44d0 b23f
00000240: 00e0 e83f 223a 2ebe bcd0 5dc0 76e5 5740
00000250: bcfb 1a3f 2f91 e5c0 2784 74be e7c4 5840
00000260: 42f7 a43f 929a 0140 1621 7340 bf94 9a3e
00000270: c0ea 08bf 4dfc 46c0 08a6 7a40 104e 2bc0
00000280: fa56 263f 5526 ac40 9abf 72c0 9fce 14c0
00000290: a012 3440 4bdd e2c1 cd9f 183f b878 04c1
000002a0: 8c05 d4bf 8c9e 24c1 65d6 c63f 8d81 8fc1
000002b0: ddf5 7bc0 120a 06c1 cd3c ac40 4478 893f
000002c0: f675 6bc0 d153 64c0 7311 a93e 9ce2 4abf
000002d0: a101 e5bf a5d9 b4c0 850c 9a3e 827f 6ac0
000002e0: 2e76 91c0 7def 80c0 0c96 e13f 467a 8140
000002f0: b467 d83f f76e 5e40 f13b c13e 4feb d0c0
00000300: 48c9 f4bf 32ab 1fc0 8f27 eac0 ee9f f63e
00000310: e774 ff3f c0e8 aa40 7fc4 d140 e8d5 c2c0
00000320: a9b9 353f e200 9bc0 24ca cdbf b498 88c0
00000330: 2259 60c0 82bd 53c0 6d9d 0440 6bf3 6b40
00000340: 97d7 60c1 5397 153f d6b1 eb3f 21ff 453d
00000350: 8c3a 6f40 4485 b13f c4b9 2dc0 cce6 62bf
00000360: d3c9 16c0 03d4 2540 05b7 05c1 cadb d03f
00000370: f1f5 75c0 0428 4abf 27af 0fc0 1d9d adbd
00000380: 0dbd 22c0 e659 cfbf 94a5 ee40 b7d7 333f
00000390: b3cf 3abf 0190 d1c0 d532 693f e380 b03f
000003a0: fc1a 503f 45ee 5640 cd9d 163e 2850 0d40
000003b0: dd8e 6f3f fd67 8fbe 0b4d a6bd f04c 58bf
000003c0: d7bd 5abf 1ed8 c8bd 446d 7e40 e772 1ac0
000003d0: 1620 d340 2c59 8d40 7912 4f40 4054 a93f
000003e0: a285 cfc0 ded8 613f d219 b6bf 9671 e63e
000003f0: 4b2b 1c3f 1059 843e d6a4 2abf 9436 aa3f

bias f4 [16]
2.4325607 1.565612 -0.5933105 9.842266 0.8193991 -1.6933973 4.592336 4.7752714
8.962649 -2.8661597 -0.9863663 4.7391925 3.1907003 -5.9332356 2.8342345 -0.15137966
00000000: 13af 1b40 f965 c83f 32e3 17bf ec79 1d41
00000010: 24c4 513f 3ec1 d8bf 6bf4 9240 06cf 9840
00000020: 0367 0f41 296f 37c0 8082 7cbf 77a7 9740
00000030: 6f34 4c40 11dd bdc0 1964 3540 4503 1bbe

weight f4 [4, 16]
0.32443318 4.749448 1.2963506 -1.2223842 -0.40251693 1.2382673 1.5150247 1.2154783
1.7108617 -1.4390987 -0.46227416 1.1464392 -0.09609973 1.117633 -1.0590947 -1.1359969
0.3547339 4.7991977 1.2951561 -1.2594336 -0.39357287 1.2933099 1.654564 1.459207
1.8962605 -1.5486885 -0.3158828 1.3954389 -0.10201898 1.69913 -1.1686847 -1.1707112
0.13314657 5.364094 2.1822896 -1.2921369 0.050547227 1.1418898 1.4947866 1.1726457
1.9570948 -1.5628085 -0.6584262 1.5201008 -0.19544844 3.7624724 -1.5173124 -1.1266272
0.2976136 4.364662 1.8784666 -1.195017 -0.29877096 1.1171392 1.4109279 0.9322211
1.4823459 -1.2863774 -0.75499 1.087937 -0.13284409 0.67466086 -1.0069673 -1.0258741
00000000: 1b1c a63e 7afb 9740 d1ee a53f 1677 9cbf
00000010: b316 cebe 8b7f 9e3f 54ec c13f cb94 9b3f
00000020: 84fd da3f 6334 b8bf 33af ecbe 85be 923f
00000030: efcf c4bd 990e 8f3f 6a90 87bf 5968 91bf
00000040: af9f b53e 0793 9940 adc7 a53f 1f35 a1bf
00000050: 6282 c9be 2e8b a53f c1c8 d33f 4cc7 ba3f
00000060: aab8 f23f 6d3b c6bf 64bb a1be be9d b23f
00000070: 54ef d0bd 187d d93f 7697 95bf ddd9 95bf
00000080: 9357 083e a8a6 ab40 a2aa 0b40 be64 a5bf
00000090: 9c0a 4f3d 7229 923f 2b55 bf3f 4119 963f
000000a0: 1582 fa3f 1c0a c8bf 9f8e 28bf aa92 c23f
000000b0: a323 48be 59cc 7040 4b37 c2bf 5235 90bf
000000c0: cf60 983e 50ab 8b40 9871 f03f 51f6 98bf
000000d0: 82f8 98be 6bfe 8e3f 4999 b43f 0ba6 6e3f
000000e0: 83bd bd3f 04a8 a4bf 0647 41bf 8541 8b3f
000000f0: 4808 08be 93b6 2c3f 4ee4 80bf d84f 83bf

bias f4 [4]
3.0170348 0.07523443 -2.5121686 5.1285605
00000000: 1917 4140 8214 9a3d 5fc7 20c0 2b1d a440

weight f4 [1, 16]
1.6192355 3.0911193 0.17079355 -4.5116024 -0.30236205 3.007203 1.8300853 1.6379898
3.656554 -1.6828772 -1.2939901 0.18362294 -1.3514858 0.0012832215 -0.67751104 -1.1098516
00000000: 1c43 cf3f e6d4 4540 81e4 2e3e 0c5f 90c0
00000010: 33cf 9abe 0476 4040 3c40 ea3f a6a9 d13f
00000020: fb04 6a40 8568 d7bf 78a1 a5bf a707 3c3e
00000030: 7dfd acbf c531 a83a 5d71 2dbf 9e0f 8ebf
