lunar_lander/latest_lunar_model_bsf.tar (torch_old, 24400 bytes, 7 tensors)

weight f4 [64, 8]
000000 8d e4 33 40 29 b5 0c bf 06 c1 d1 be fe 1c 47 bf
       2.8108246 -0.5496393 -0.40967578 -0.77778614
000010 c2 13 c5 3f 04 7a dc be 8c c5 df be c9 7c 4c 3d
       1.5396655 -0.4306184 -0.43705404 0.049923692
000020 a4 6e 5b 40 04 12 d3 be 2f 2f 6c 3f 13 94 05 3f
       3.428628 -0.41224682 0.92259496 0.5217907
000030 3d 2b 28 bf 25 51 50 be 93 16 bb bd fd fe 01 c0
       -0.65690976 -0.20343454 -0.09135165 -2.0311882
000040 a8 5f 93 3d 8b 1c d2 be 8a a2 d5 bf 64 1f 88 bd
       0.07195979 -0.41037402 -1.6690228 -0.06646612
000050 0a cf fe 3f 5e 8e 19 bf 15 bb 94 be 84 2e 9a 3e
       1.9906933 -0.5998286 -0.29048982 0.30113614
000060 e0 98 02 bf 63 b7 13 c0 07 a4 04 40 77 82 42 40
       -0.5101452 -2.308068 2.0725114 3.039213
000070 1d 14 02 c0 46 79 3f 3f 6a c2 51 3e fd 39 10 3f
       -2.0324776 0.74794424 0.2048432 0.56338483
000080 f8 2e 24 3e 3b 8a 4d 3e d6 70 88 be e6 23 aa bf
       0.16033542 0.20072262 -0.26648587 -1.3292205
000090 9e 5f a1 bf 91 30 00 bf ca be 18 c0 47 48 77 3f
       -1.2607305 -0.50074106 -2.3866448 0.9659466
0000a0 f2 e0 cb bd ee 30 f5 be fb 97 07 3f e9 31 8c be
       -0.09955014 -0.47888893 0.5296628 -0.27381828
0000b0 f3 b3 74 3e 5d 2a 70 bf 56 be b7 be 6f aa 8f be
       0.2389677 -0.9381464 -0.35887402 -0.28059718
0000c0 0e 89 90 3f 31 ba 30 bd 37 ce 84 bb f6 1b 94 bf
       1.1291826 -0.043146316 -0.004052903 -1.1571033
0000d0 52 3f 29 c0 fb 19 a0 bf c2 8c b8 bd 22 ae 61 3f
       -2.6444898 -1.2507929 -0.090112224 0.8815633
0000e0 16 40 c5 3d 4b 82 84 be 4d 44 86 bf b5 ac 80 3f
       0.09631364 -0.25880656 -1.0489594 1.0052706
0000f0 25 a5 b0 bd ed ac 27 be fc a3 e0 3e db 90 0a bf
       -0.08625249 -0.1637456 0.4387511 -0.5412728
000100 f4 5b 29 3f 8d 02 94 3e 2b ac ec be 3e 9d ce bf
       0.66155934 0.28908196 -0.46225104 -1.6141737
000110 81 e9 8b 3c dd bb ae 3f f9 f5 be 3e 69 65 b5 bf
       0.017079117 1.3651081 0.37297037 -1.4171573
000120 69 55 76 40 ac 80 34 3f 2f 1f 78 3e 0c b7 a1 3f
       3.848963 0.7050884 0.24230646 1.2633986
000130 77 97 a3 3f 6d 39 06 3e 92 67 33 bf fb d1 2a 3f
       1.2780598 0.13107844 -0.7007991 0.66726655
000140 83 61 9d 3f 2c d6 66 be 8e bf db 3f 84 ec 39 bd
       1.2295383 -0.22542638 1.7167833 -0.045391575
000150 78 2a 7b bf 74 76 31 bf 9f df 16 bf 1a 20 11 3f
       -0.9811168 -0.6932137 -0.5893497 0.5668961
000160 50 a3 7a 3f b5 09 5b 3f 19 39 16 bf 4e 99 19 bf
       0.97905445 0.85561687 -0.58680874 -0.5999955
000170 5f 89 ed 3f fc 8c b2 be 5f e2 fa bf 39 0e d9 3e
       1.8557547 -0.34873188 -1.9600333 0.42393664
000180 17 34 b4 3e 24 40 b2 bf fc da 18 bf 9a 20 a3 3f
       0.3519599 -1.3925824 -0.59709144 1.2744324
000190 3f 0c 15 3f 43 80 b3 3e 31 b1 03 bd 00 24 51 bf
       0.5822181 0.35058793 -0.032151405 -0.81695557
0001a0 cd 0f 79 3f a6 67 84 be 33 62 b5 be 24 bc ec bf
       0.97289735 -0.25860327 -0.35426483 -1.8494916
0001b0 ef 64 8e 3f 5f d8 b2 3f 47 5b 44 3f 0b 14 4d be
       1.1124552 1.3972281 0.7670178 -0.20027177
0001c0 22 0c 24 3f 65 4b be 3a 6f 25 83 bf 93 73 b5 3f
       0.64081013 0.0014518319 -1.0245799 1.4175895
0001d0 dd 02 f7 3f 2f ba 9c 3f 71 aa 36 bd 05 0d fb bf
       1.9297749 1.2244319 -0.04459614 -1.9613348
0001e0 99 a6 3d bf 3d ee f8 be 14 69 0b 3f 1c c8 82 bf
       -0.7408233 -0.4861926 0.5445721 -1.0217319
0001f0 57 e6 28 be 62 00 23 c0 95 d0 89 c0 34 72 4c 3f
       -0.16494118 -2.5468984 -4.3067117 0.7986176
000200 a5 f1 0d 3e 7d de 99 bc 06 62 ab 3e 76 1f 0e c0
       0.13861711 -0.018782848 0.33473223 -2.2206702
000210 0f 33 d4 be 7e 3b 47 3e db af cc be 31 b7 23 bf
       -0.41445205 0.19456288 -0.39977917 -0.639514
000220 a8 c6 f1 bc 35 ca eb bf a4 12 28 bf 72 e7 c5 3e
       -0.029513672 -1.8421084 -0.65653443 0.3865314
000230 d1 a2 4c bf f9 2f 3f bf fc 76 7a 3e 5f 0b b4 bd
       -0.7993594 -0.74682575 0.24459451 -0.08791231
000240 fb 3b 76 c0 a7 29 09 be a5 5a ac bf fd df 24 3f
       -3.847411 -0.13394795 -1.3465163 0.6440428
000250 22 2c 42 3e 24 7e 02 be 2a f0 40 bd c6 d0 19 3d
       0.18962148 -0.12743431 -0.04710404 0.037552617
000260 5a 71 8c 40 d3 a2 f9 be 0e 97 b7 3f 9f be 4d bf
       4.388837 -0.48757038 1.4342973 -0.8036899
000270 54 de 71 bf 04 5b 5f 3d 63 6d c8 bc cb c8 a8 3d
       -0.9447987 0.05453016 -0.024466222 0.08241423
000280 a7 60 a8 bf 82 f9 cd c0 4b 29 8c bf 0a e5 88 c0
       -1.3154496 -6.4367075 -1.0950102 -4.277959
000290 a2 08 b0 3f 6a 9d 74 3f d4 51 49 3f b8 d5 42 bf
       1.3752635 0.95552695 0.78640485 -0.7610736
0002a0 d1 b1 cb be b0 03 d5 be 7f 42 0c bf f3 be c9 bf
       -0.397841 -0.41604376 -0.54788965 -1.5761398
0002b0 e7 78 06 40 d6 26 df 3f ed d6 91 3f 6a 14 11 c0
       2.1011293 1.7433727 1.1393715 -2.266871
0002c0 dd 9a 9c be 39 23 19 c0 68 a1 67 bf d8 a5 3a c0
       -0.305869 -2.3927748 -0.9048066 -2.9163723
0002d0 6a 01 3e bf b0 78 30 bf b1 34 26 bf 6d 22 b3 bd
       -0.7422091 -0.68934155 -0.6492415 -0.087468006
0002e0 41 d3 6b 40 23 82 92 bf be ce 33 3e 1a 0d bb bf
       3.684769 -1.1445965 0.17559335 -1.4613373
0002f0 3e 08 1a c0 dc f9 39 be fe 0e d1 be b5 c7 d2 3e
       -2.406753 -0.1816172 -0.4083175 0.4116799
000300 4f ce b3 3f 3f 79 45 bf f2 c9 2b 3e c9 44 b6 3d
       1.4047335 -0.7713813 0.16776255 0.088998385
000310 fe bb 84 be 6e e2 4d bd cb e2 5c be 91 68 07 bf
       -0.25924677 -0.05026477 -0.2157089 -0.5289393
000320 f4 85 58 3f 71 f8 f1 3d 9c 9f cc bf a9 b8 8a bf
       0.84579396 0.118149646 -1.5986209 -1.0837604
000330 c6 83 de be 76 60 23 be 91 6d be bd 2f 87 10 3e
       -0.4345991 -0.15954766 -0.09298242 0.14114068
000340 db a8 b4 bf cc 81 5e 3f 39 35 8b be 9c 49 cd bd
       -1.4114031 0.86916804 -0.27189043 -0.100238055
000350 52 e2 3f bf 8e e1 a3 bf be 23 a4 be b7 79 ff bf
       -0.7495471 -1.2803209 -0.3205852 -1.995902
000360 f5 7c 14 3d 9e 58 54 bf 2d 33 b0 bf e6 32 0a 3f
       0.03625198 -0.8294772 -1.3765618 0.53983915
000370 ca 81 50 40 c7 12 a4 3f 22 60 bb bf 7b 09 21 be
       3.2579217 1.281823 -1.4638712 -0.15726273
000380 d3 8f 70 3e df df 2e 3f 46 34 34 be b5 0e 6a be
       0.23492365 0.6831035 -0.17598066 -0.22857173
000390 98 56 fa bf 96 89 08 bf b4 a6 1d c0 26 af ad bf
       -1.9557676 -0.5333494 -2.4632998 -1.3569076
0003a0 c3 d7 1a c0 0c 57 4d 3f 36 61 08 c0 bd e5 fa 3e
       -2.419419 0.8021095 -2.1309333 0.490034
0003b0 4b ed f6 3e 9a 3c 81 3e 6a d4 da bd 99 cd de bd
       0.48227915 0.25241548 -0.10685046 -0.108790584
0003c0 af 3f b9 bf 3d 84 bf 3e da 82 a7 be 47 f5 49 3f
       -1.447256 0.37405577 -0.3271702 0.7888989
0003d0 e7 71 ef 3e 59 f4 93 be 33 98 62 3e d2 5f 8a 3e
       0.46766588 -0.2889736 0.22128372 0.2702623
0003e0 76 62 27 c0 9f 9d 11 be 25 28 ef bf 0a a7 fa bd
       -2.6153846 -0.14220284 -1.8684126 -0.122388914
0003f0 d1 84 0a 40 04 1f c6 3b d4 8e bd 3e 55 30 d1 be
       2.1643565 0.006046178 0.37023032 -0.40857187

bias f4 [64]
000000 88 62 33 3d 7b f3 74 bd 91 d4 03 bd b5 2e f4 3d
       0.04379514 -0.059802514 -0.03218514 0.11922971
000010 62 2c b4 3e f4 c0 a3 3e 67 de 69 bf 24 f0 48 3e
       0.3519011 0.3198315 -0.91354984 0.19622856
000020 cc d8 47 ba ad 15 fc bf 5e 0d c9 bf 9a 2f c8 bf
       -0.0007623553 -1.9694115 -1.5707204 -1.5639527
000030 17 ba 9f 3f a3 80 e9 bf 66 e6 29 bf 7d 3a 39 bf
       1.2478665 -1.8242382 -0.66367185 -0.7235487
000040 17 79 ac b9 5c ca 39 3f f2 13 7c 3b ba 66 bf be
       -0.00032896615 0.725744 0.0038464037 -0.37383062
000050 f1 b8 fa 3d ec 38 91 bf f2 a9 e1 bf 51 71 0c bf
       0.12242306 -1.1345496 -1.7629988 -0.5486041
000060 3d 87 76 3f 77 11 8a be f7 0c 75 bf ba 52 2e c0
       0.9630011 -0.2696645 -0.9572291 -2.7237992
000070 81 ab d4 3e e3 f2 c7 bf 17 f4 d0 be 94 6f ee 3d
       0.41537097 -1.5620998 -0.40811226 0.116423756
000080 df 45 d6 bf b7 78 ac 3f 75 8d 91 bf b2 57 3b 3f
       -1.6740073 1.3474339 -1.1371294 0.7318069
000090 25 23 81 bf 06 c2 c3 bf ff 64 04 3f f0 35 47 3f
       -1.008885 -1.5293586 0.5171661 0.7781668
0000a0 04 81 68 be 2a cd b1 3e b5 c8 d1 be d1 e5 21 3c
       -0.22705466 0.3472684 -0.4097344 0.009881453
0000b0 c1 37 b1 3f 9a 6c 40 c0 51 e6 59 bd 6e 27 1a 3f
       1.384514 -3.0066285 -0.053198162 0.60216415
0000c0 2d 58 3a be f6 be e9 bf 97 be df 3e 22 6f f1 bf
       -0.18197699 -1.8261402 0.43700096 -1.886204
0000d0 cb 53 8a be a5 56 0b bd 1b 9d 80 bf d2 af c7 bb
       -0.27017054 -0.034018178 -1.0047945 -0.0060939575
0000e0 81 46 a8 be dd 66 af bf 91 56 1a 3f c7 ac 76 bf
       -0.3286629 -1.3703266 0.6028834 -0.9635739
0000f0 f6 6d ac bf c8 62 ee bf a9 08 ad bf fb a4 b9 bf
       -1.3471057 -1.8623896 -1.3518268 -1.4503473

weight f4 [64, 64]
000000 5f 1b 51 3f 08 2d 8d bf c6 92 b7 3e 8a 9e 86 3f
       0.8168239 -1.1029367 0.35854167 1.0517132
000010 b3 81 d4 3e c8 43 4a bd 7a 66 3a bf 02 31 af bd
       0.41505203 -0.049381047 -0.72812617 -0.085542694
000020 d8 e5 ae 3f ef dd 86 c0 1b 94 b0 bf 2c af 66 c0
       1.3663893 -4.2145915 -1.3795198 -3.6044416
000030 40 71 e5 3f 6d 65 a2 bf da 8d 28 bf 32 8e aa bd
       1.7925186 -1.2687203 -0.6584145 -0.08327903
000040 46 cc 9d 3f 10 2e aa 3f 1d bc db be a5 88 9c bf
       1.2327964 1.3295307 -0.42916957 -1.2229201
000050 48 72 93 3e 75 cd 9f bf 1c b1 bd bf d4 92 3a 3f
       0.28798127 -1.2484576 -1.4819674 0.7288029
000060 57 8d 3e 3f 55 50 f6 3d f4 68 9e bf 3b b7 dd c0
       0.7443442 0.12027041 -1.2375779 -6.928617
000070 de d6 4f 3f 1d 34 af bf bd e5 93 3e ce 27 65 3d
       0.81187236 -1.3687779 0.28886214 0.055946164
000080 a6 e1 7e c0 29 4d 29 3f 64 ab 0f 40 fb 27 25 3f
       -3.9825225 0.6613336 2.2448359 0.6451413
000090 75 1b 0b bf 72 6a aa bf 2d 67 89 3f 3b b0 85 3f
       -0.5433877 -1.3313735 1.0734612 1.0444406
0000a0 59 6f 27 3e d1 40 90 bd e7 cc 66 bf 5d 0a ce 3e
       0.1635107 -0.07043613 -0.90156406 0.40242282
0000b0 18 bb 85 3f ba d4 60 40 b5 15 74 bd 73 9f 53 3f
       1.0447721 3.5129838 -0.059591014 0.82665175
0000c0 4b e0 23 3e 8f cd 88 bf a0 3c 31 3d 75 3f 5c bf
       0.1600353 -1.0687732 0.043270707 -0.8603433
0000d0 14 23 10 bf 99 19 63 3e 84 70 bc bf 33 a9 89 3f
       -0.56303525 0.22177733 -1.4721837 1.075476
0000e0 a2 20 28 be 55 98 fa bc 29 fb 50 3f 1f b0 cc bf
       -0.16418698 -0.030590216 0.8163324 -1.5991248
0000f0 17 93 eb bf d3 d4 8b c0 16 db e5 bf 1a 14 d9 bf
       -1.8404263 -4.3697295 -1.7957485 -1.695926
000100 6c ea ad 3f 12 ad 01 40 79 aa c6 bf f9 62 ac 3f
       1.3587165 2.0261884 -1.5520774 1.3467704
000110 15 aa 7a 3f 26 16 ff 3e 1e c0 64 bf 62 97 08 c0
       0.97915775 0.49821585 -0.8935565 -2.1342397
000120 e2 08 b2 3f 99 46 b2 be 2f cc da bf 47 55 41 3f
       1.3908961 -0.34819487 -1.7093562 0.7552075
000130 03 b9 3c 3f 45 f8 c4 3f c3 a1 99 3e 8f 77 0b bf
       0.73719805 1.5388266 0.30006227 -0.54479307
000140 40 1f 53 be d7 28 18 40 cf 18 da bd dd 4b f0 be
       -0.2061739 2.3774927 -0.10649263 -0.4693288
000150 c2 01 89 bf 7e 18 c0 3f 4d 40 da bf 89 65 68 bf
       -1.0703661 1.5007474 -1.7050873 -0.9077993
000160 3e 2c 43 bf 52 f3 c2 bf 18 cf 75 3f d7 ac 94 bf
       -0.76239383 -1.5230505 0.96019125 -1.1615247
000170 46 67 1f 3d b6 89 f5 bc 63 b3 4f be 1d 82 85 be
       0.03891685 -0.029972892 -0.20283274 -0.2607583
000180 02 51 d4 bf 4c c8 eb 3e 1c 20 17 40 60 63 f1 3d
       -1.6587222 0.46051252 2.3613348 0.117865324
000190 f6 e5 08 3f 6e 67 dd bf 3a 37 a4 bf 59 5e bc 3e
       0.5347589 -1.7297189 -1.2829354 0.36790732
0001a0 ca c1 4b bf 3c f4 23 bf fa 52 15 bd 9e 6e d4 3f
       -0.79592574 -0.6404455 -0.036456086 1.6596258
0001b0 be 3c 9b bf 25 6e 4c c0 cb da 85 be 3a 6d 8c 3f
       -1.2127912 -3.1942227 -0.26143488 1.0970833
0001c0 6f 5e 3d 3e 73 1e ac bf 6b 52 61 3f 57 9c 98 3f
       0.18493055 -1.3446792 0.88016385 1.1922711
0001d0 df 14 3d c0 cc 83 74 bf 90 d4 19 3e 09 dc 91 3f
       -2.9543989 -0.95513606 0.15022492 1.1395274
0001e0 e4 1f fa bf dd f5 81 3f 14 ac 6a bf dd 3e d7 3e
       -1.9540982 1.0153157 -0.9166882 0.42040148
0001f0 e0 79 0a 3f cf 43 80 c1 dd 4d a3 bf 49 3a c9 be
       0.54092216 -16.03311 -1.2758137 -0.3930228
000200 e4 45 b1 3e 4f f8 f0 3e 1e e2 be bf 1c 9a 82 bf
       0.34623635 0.47064444 -1.4912755 -1.020328
000210 b6 be 1f c0 26 27 10 bf 65 12 1a 40 c7 30 a3 c0
       -2.496015 -0.56309736 2.4073727 -5.0997043
000220 c4 59 b7 3f ea ba b5 3f 3d 1b 0f 3e 0d 8b aa 3e
       1.4324269 1.4197667 0.13975234 0.33309212
000230 a5 ef 45 3f db 62 e4 3f 43 5b fe 3d 9f df 1a bf
       0.77318794 1.7842668 0.124197505 -0.6049747
000240 51 05 6a bf 41 0b 6a bf 27 f3 96 3f cf aa 98 3f
       -0.9141436 -0.9142342 1.1792954 1.1927127
000250 9c 84 91 bf e8 65 a4 bf f0 94 f0 bf d8 82 8f 3e
       -1.1368594 -1.2843599 -1.8795452 0.28029513
000260 17 4a 56 3f d1 f5 ce bf e5 c6 6f 3c 0e 97 6f c0
       0.837068 -1.6168767 0.0146348225 -3.7435946
000270 60 f2 52 3f 81 5f 6a c0 e7 27 02 40 d0 c4 7f 3f
       0.82401085 -3.662079 2.0336854 0.9990969
000280 1c 66 f9 be 90 84 3c 3d c0 07 6e bf ff eb 19 bf
       -0.48710716 0.04602486 -0.92980576 -0.60125726
000290 b8 cf 61 bf 31 62 c3 bf e2 93 d9 bd 63 35 09 bf
       -0.8820758 -1.5264341 -0.106239095 -0.53597087
0002a0 a5 91 96 bf 91 4a 1f be f5 b5 0b 3f fa 98 9b c0
       -1.1763197 -0.15555789 0.5457452 -4.862424
0002b0 54 43 cd 3d 5a 3d a5 bf 1c 69 8a 3f 41 0e 16 3d
       0.100226074 -1.2909348 1.0813327 0.036634687
0002c0 6e a0 87 3f 58 8d 9c bf c4 0e a5 be f6 a4 33 c0
       1.0595834 -1.2230635 -0.32237828 -2.8069434
0002d0 57 00 d8 3f ce 9f 9e bf e2 1e a5 be 93 51 af bf
       1.6875104 -1.2392519 -0.32250124 -1.369677
0002e0 4d 10 05 bf dd 1e 00 bf 65 94 06 c0 eb 21 9a 3e
       -0.51978 -0.50047094 -2.1028073 0.30104002
0002f0 86 cd 1e bf 4b 5a 79 3f 16 22 09 bf ff d8 33 3d
       -0.62032354 0.974034 -0.53567636 0.043908115
000300 e9 d3 43 be a9 fe 5e bf bf 36 ae bf 2c 7b c3 3e
       -0.19123806 -0.8710733 -1.3610457 0.3817991
000310 7b fb 31 bf bc 2b 44 be 18 d9 3f 3f 66 43 6b 3c
       -0.69524354 -0.19157308 0.74940634 0.014359331
000320 bb 2e 17 c0 8b ce 06 40 71 71 2f 3f 29 d7 bd 3f
       -2.3622272 2.1063564 0.6853247 1.4831287
000330 54 e6 2a c0 e2 a6 30 3f 46 ee c1 bf ce c6 01 3e
       -2.670308 0.6900464 -1.515084 0.12673494
000340 c0 9f 87 bf 85 74 88 3e f3 20 3c 3d 4f f2 63 3f
       -1.0595627 0.26651397 0.04592986 0.8904161
000350 d6 fa 64 c0 aa b0 c6 bf 84 03 e4 bf eb 01 d2 3e
       -3.5778098 -1.5522664 -1.7813573 0.41017088
000360 af f1 df 3d 40 f8 36 3f b6 12 0d 40 ee 0f 61 3f
       0.10934769 0.7147255 2.204267 0.8791493
000370 cd e6 6e 3f 5c 9a 82 3f 66 93 94 bf a0 39 71 bf
       0.93320924 1.0203357 -1.1607482 -0.94228554
000380 3d b3 3e bf b0 b7 50 bf 96 f0 c3 bf 70 da b0 bf
       -0.74492246 -0.81530285 -1.5307796 -1.3816662
000390 95 19 a4 3f 66 78 2c bf 2a 71 36 3f d7 44 38 bf
       1.2820307 -0.67371213 0.71266425 -0.7198004
0003a0 e3 ff 6d c0 54 3d 17 be 1e 55 01 3f 4c 1e 21 40
       -3.718743 -0.14769489 0.50520504 2.5174742
0003b0 30 8f 62 3e d1 bb 29 3f 48 7f 1f 3f 2f d4 28 bf
       0.22124934 0.6630221 0.6230359 -0.65948766
0003c0 53 5a d0 3f e6 56 ad 3f 40 16 c1 bf 93 2e 08 40
       1.6277565 1.3542144 -1.5084915 2.1278427
0003d0 d4 1e ed bf 89 b8 81 bf db 07 c4 bc b2 eb c6 bf
       -1.8525033 -1.0134441 -0.023929527 -1.5540679
0003e0 79 d8 4d 3e 5b a6 0c 3f f2 b0 23 3f 77 63 8c 3f
       0.20102109 0.5494134 0.6394187 1.0967854
0003f0 9b 2e b3 bf 27 0f 2f 40 40 8a a7 3f 00 8b 77 3f
       -1.3998598 2.7352998 1.3089066 0.9669647

bias f4 [64]
000000 1c b9 5a 40 a0 0c ac 3e 78 1a 8d 3f b9 10 b2 be
       3.4175482 0.33603382 1.1023703 -0.34778383
000010 c9 b4 91 3f 1e 8a a3 bf 24 cb 43 bd c7 23 02 3f
       1.1383296 -1.2776525 -0.047801152 0.5083584
000020 45 db 07 be bd 05 27 3f c9 27 a6 3e cf 34 9b bf
       -0.13267238 0.6524313 0.3245223 -1.2125491
000030 24 b1 e4 3f 14 6c 55 be c1 0c 96 bf bf d1 04 3f
       1.7866559 -0.2084201 -1.1722642 0.5188255
000040 87 f6 a9 be 17 61 bc bd f3 91 76 be f8 17 08 be
       -0.33195898 -0.09198206 -0.24079113 -0.13290393
000050 d9 a7 2e 40 c6 93 38 bc f5 7b a8 3f b6 7c a8 bf
       2.7289946 -0.011265701 1.3162829 -1.3163059
000060 8d c6 e6 bf f0 eb 1c 3f 86 bd ff bb 9b b8 b3 bf
       -1.8029343 0.6129751 -0.0078045754 -1.4040712
000070 0f 40 9b 3f d4 17 14 bf c4 8a 10 bf 07 b0 95 3e
       1.2128924 -0.5784886 -0.5646174 0.2923586
000080 c8 ea 84 bc b3 76 bb 3e f6 95 5e 40 23 ed 9f 3f
       -0.016225234 0.36613998 3.477903 1.2494243
000090 fa 7f 22 40 4e 5f 04 be 83 b7 45 be 04 a0 30 3f
       2.539061 -0.12926981 -0.19308285 0.68994164
0000a0 40 f4 bb 3f bf 25 98 bf fe 4e ba bf 64 4b f5 be
       1.4683914 -1.1886519 -1.4555357 -0.4790908
0000b0 99 04 95 3f 42 1f 35 3f 3e 11 a0 bd 72 9f 07 3d
       1.1642028 0.7075082 -0.07815789 0.033111043
0000c0 ce 37 ab bd 5a c9 2e be 38 0e 07 40 a5 e1 9f be
       -0.08360253 -0.17068997 2.1102428 -0.3122684
0000d0 0f 45 4e 40 9c 92 91 bd 8d 72 3a 40 be c2 0f bf
       3.222965 -0.07108042 2.9132416 -0.5615653
0000e0 70 0d eb bd 19 43 58 3f b3 bf 7e 3f cf 78 3d 3f
       -0.114771724 0.8447738 0.9951126 0.74012464
0000f0 19 ba 79 bf 84 16 83 bf 6b 08 5f 3e e4 de 2e be
       -0.9754959 -1.0241246 0.21780555 -0.17077214

weight f4 [4, 64]
000000 23 7a 52 3f 36 3f 0a bf 93 5a 4f 3e 3f 7d 44 be
       0.82217616 -0.540027 0.20249395 -0.19188403
000010 e1 12 83 be 81 3f fd 3f 59 30 0c 3e fa ff d7 3e
       -0.2560034 1.9785005 0.13690318 0.42187482
000020 d0 35 01 be 11 ff 42 bf 6a 53 9b bf af 23 92 3f
       -0.12618184 -0.7617045 -1.2134831 1.141714
000030 0a db 3f 3f 1b 75 f7 bf 3a 62 ac 3f 21 f6 cb bf
       0.749436 -1.9332613 1.3467476 -1.5934488
000040 91 80 2e 40 4d 71 bf bc 2a 65 8d bd f2 dc dd 3d
       2.726597 -0.023369456 -0.06904061 0.108331576
000050 d5 78 99 be 7d 4d 99 3c ec 1e fa be 79 3e 98 3e
       -0.29975 0.018713707 -0.48851717 0.29735163
000060 15 3b 92 bf 7b b9 49 bd 9b 9e 31 3c ea a1 f4 3f
       -1.142428 -0.049249154 0.010841037 1.9111912
000070 07 5c ba be e7 01 89 3f 65 39 17 c0 bf d0 96 bf
       -0.36398336 1.0703706 -2.362878 -1.1782454
000080 f4 b8 be 3d 84 7e c5 3d a8 97 ff 3e 50 b0 0d be
       0.09312621 0.096432716 0.49920392 -0.13836789
000090 4c 0f 8d 3e 12 7f 3f 3e 06 9c ab bd 41 90 73 be
       0.27550733 0.18700817 -0.083793685 -0.23785497
0000a0 d6 49 c4 3f 67 5b d1 be 32 24 d3 bf c7 f7 2a 3e
       1.5335033 -0.40890047 -1.6495421 0.16696082
0000b0 20 b3 87 3f 30 ee fa 3e 45 35 c7 bd 63 cb 50 bc
       1.060154 0.49009848 -0.09726957 -0.012743804
0000c0 d7 3f 94 be 24 44 07 3f 5d 7f 08 3f 46 cc 0b bf
       -0.28954956 0.5283835 0.5331934 -0.5460857
0000d0 d1 e2 ef 3e 08 ff d4 3d 80 f8 fb 3e 30 a3 8f 3e
       0.46852735 0.10400206 0.49213028 0.2805419
0000e0 e6 58 d2 3d 2b ec e0 bf 77 8a 96 3e 05 b8 28 be
       0.10270862 -1.7572073 0.29402515 -0.16476448
0000f0 96 84 b8 3f 0d 15 31 bf 77 2b 31 bf 08 0a 17 3d
       1.4415462 -0.69172746 -0.6920695 0.0368748
000100 8b a7 50 3f c3 43 2a bf 6d 35 41 3e b3 a1 8d 3c
       0.8150565 -0.66509646 0.18868037 0.017289018
000110 b4 30 90 be d3 e0 ef 3f ff b8 f2 3d af 91 09 3f
       -0.28162158 1.8740486 0.118516915 0.5373792
000120 b4 a0 17 3d 3d 8a 2a bf 7e 62 9d bf fe 01 94 3f
       0.037018493 -0.66617185 -1.2295682 1.1563108
000130 9f 84 30 3f 74 b0 ea bf 66 33 96 3f 03 fa b3 bf
       0.68952364 -1.8335099 1.1734436 -1.4060673
000140 00 e5 11 40 0a c6 98 3c 48 d1 1c bd e6 23 c1 3d
       2.279602 0.01864912 -0.038285524 0.09430675
000150 71 ef 0e bf c7 36 50 3d c1 d8 a7 be 7a f8 10 3f
       -0.5583411 0.05083349 -0.32782558 0.56629145
000160 0e 1e 9d bf 36 ec 5f be cf a1 18 3e bc eb e6 3f
       -1.2274797 -0.21867451 0.14905475 1.804069
000170 6d f5 d3 be 7b 2d 91 3f 1f f0 fc bf 7b c9 5f bf
       -0.41398183 1.1342005 -1.9760779 -0.8741681
000180 4c 2b 22 3e a1 16 26 bc 4d 8c ff 3e 6d fc 01 be
       0.15836829 -0.010137231 0.49911729 -0.12693949
000190 fa 7b ba 3c ad e6 0c 3f 38 95 9d 3c ca 2e 75 3e
       0.022764195 0.55039483 0.019236192 0.2394363
0001a0 c8 88 a6 3f 1b ba ee be 26 cd bd bf f5 02 eb 3d
       1.3010492 -0.46626362 -1.4828231 0.114751734
0001b0 25 49 75 3f c8 2a 06 3f f7 23 c6 3d 73 df 27 be
       0.95814735 0.5240903 0.096748285 -0.16393833
0001c0 fa 62 6a be 0f 84 26 3f 48 3f fa 3e ad 7c 47 bf
       -0.22889319 0.65045255 0.48876405 -0.77924615
0001d0 f0 51 ad 3e 5e 7d a0 3d 9b 2f 20 3f a0 a7 5a be
       0.33851576 0.07836412 0.6257264 -0.21353006
0001e0 3f 1a 1b 3e a4 e6 00 c0 62 69 9a 3e 25 e1 90 3e
       0.15146731 -2.0140772 0.30158526 0.28296772
0001f0 4d 7b dc 3f 05 90 69 bf 83 3d 0f bf 57 32 78 3d
       1.7225128 -0.9123538 -0.55953234 0.060594883
000200 80 48 f3 3e a4 84 f1 3d 00 8c a7 3e 1c 74 91 be
       0.4751625 0.11792877 0.32724 -0.28408897
000210 ba dd b9 be 86 bc fe 3f 48 33 af bc 73 22 15 3f
       -0.36301976 1.9901283 -0.021386757 0.5825569
000220 5c df cf bd a4 1d 2a bf 4c e5 ae bf 9b 6c 13 3f
       -0.10150024 -0.6645148 -1.3663726 0.57587594
000230 ab 36 5f 3f 03 3b f4 bf 7e dd 75 3f 32 3d c0 bf
       0.8719279 -1.9080509 0.96041095 -1.5018675
000240 6b 2f e4 3f c0 0e c1 3c e6 01 c9 bd 82 aa 85 3d
       1.7826971 0.023566604 -0.09814815 0.065266624
000250 52 4b ff 3e 83 fa aa bd 57 64 12 bf e5 8e 9b 3e
       0.49862152 -0.083485626 -0.57184356 0.30382457
000260 e7 f2 cb bf ba 3a 53 bf 0e 8d 12 bd a8 99 ca 3f
       -1.5933503 -0.82511485 -0.03577905 1.5828142
000270 c3 ad 70 be 49 fd 0c 40 bd e4 1a c0 ea a8 3c bf
       -0.23503785 2.2029593 -2.420211 -0.7369524
000280 8a d0 e6 bc c3 bb 53 bd 0f 20 a2 3e b5 7f 88 be
       -0.028175611 -0.051692735 0.31665084 -0.26659933
000290 c2 6d 4d bc 49 16 f7 bc c4 74 f9 3d 2c df 92 3e
       -0.012538375 -0.030161994 0.121804744 0.28685892
0002a0 55 b6 bf 3f 4e b5 ef be f7 59 0c bf 4c a2 96 3e
       1.4977518 -0.46818012 -0.54824775 0.29420698
0002b0 53 17 86 3f c8 d7 02 3f 6a a4 1b bc 1e d1 e0 bd
       1.0475868 0.51110506 -0.009499649 -0.10977386
0002c0 ea 36 2d bd a7 c6 21 3f 2f 4c 19 3f 83 f2 21 bf
       -0.0422887 0.63193744 0.5988187 -0.6326067
0002d0 4e 38 13 3f b9 be e8 3d 7f 48 d1 3e 1c 09 11 3d
       0.5750779 0.113645025 0.40875623 0.035409078
0002e0 bf 97 37 3d d7 a2 bb bf 53 74 91 3e 94 d7 57 bf
       0.04482245 -1.465907 0.2840906 -0.8431332
0002f0 9e 7f f5 3f 49 ac a8 bf e4 b2 1e bf b7 6e 6f 3d
       1.9179571 -1.3177577 -0.61991715 0.058455195
000300 2e 9c 2e 3f dd e7 2e bd 72 85 39 bd 67 9d 35 be
       0.6820706 -0.04270159 -0.04529328 -0.17735825
000310 d9 a6 2f be e1 f8 e4 3f 5c 84 e4 bc 7d 48 29 3f
       -0.17153491 1.7888452 -0.027895145 0.66126233
000320 4d be 98 bd a6 cc 2b bf 2c 5e 85 bf 2c 4b ab 3f
       -0.07458172 -0.67109144 -1.0419364 1.3382316
000330 79 b3 5a 3f e5 b0 a0 bf cc 57 d9 3f 41 ac c5 bf
       0.85430104 -1.2553984 1.6979918 -1.5443193
000340 87 7a 10 40 cf 9e 16 bc 7d af 6b 3c 2d 58 b2 bd
       2.2574785 -0.009193136 0.014385101 -0.087082244
000350 f0 27 a4 3e 91 c3 0a bb 11 a9 24 bf b4 fa df 3c
       0.3206172 -0.0021173696 -0.64320475 0.027341224
000360 3d 42 af bf 5f 6f c2 3d eb 62 62 bc 6b a6 da 3f
       -1.3692089 0.094938986 -0.013817529 1.7082037
000370 5e 73 8f be 33 c6 b0 3f d6 e6 00 c0 ee 96 5a bf
       -0.28017706 1.3810486 -2.014089 -0.8538655
000380 a1 fc 1f 3e 3e 29 a8 3e b2 01 b0 3e c4 3c 05 be
       0.15623714 0.32843965 0.34376293 -0.13011461
000390 23 82 b3 3e 00 20 a1 be b3 8c bb bb 1a 24 07 bf
       0.35060224 -0.31469727 -0.0057235598 -0.5278946
0003a0 7e 7f ca 3f 0d ce f2 be c4 4a ec bf c9 4c 8b 3e
       1.5820158 -0.4742283 -1.8460317 0.2720702
0003b0 8d 89 89 3f ad 5c d6 3e 30 52 9d 3b 96 b7 a4 3d
       1.0745102 0.4186758 0.0048010573 0.08042829
0003c0 27 01 87 be 23 a4 f1 3e 94 56 2c 3f 36 c7 11 bf
       -0.26368067 0.4719554 0.6731961 -0.56944597
0003d0 a0 a8 00 3f 4a 83 23 3e f3 6d bf 3e e5 4a 92 3d
       0.502573 0.15968052 0.37388572 0.07143191
0003e0 0b e2 e3 3d 60 18 bd bf fe cc fb 3e 8d e1 42 bf
       0.11127099 -1.4773064 0.49179834 -0.76125413
0003f0 a3 75 92 3f 6c d4 5c be 7e 4d 4c bf 74 3d 16 3d
       1.144215 -0.21565408 -0.79805744 0.0366797

bias f4 [4]
000000 ed 50 9d be f0 90 6e bd ae af b6 3f 19 1f cf be
       -0.30725804 -0.058243692 1.4272363 -0.40453413

weight f4 [1, 64]
000000 a8 a7 f3 3f 9b 02 b4 be 9f 59 89 bf 03 4b ec bf
       1.903554 -0.35158238 -1.0730475 -1.8460392
000010 2d 6d dc bf 31 67 59 40 a7 95 57 3d f3 09 d9 bf
       -1.7220818 3.3969233 0.052632954 -1.6956161
000020 3c 61 a6 3d 8a b7 bd bf e1 6f cf be 98 67 41 40
       0.08124015 -1.4821637 -0.40515044 3.0219479
000030 ed e8 b4 3f 5e f0 f2 bf 40 ed 82 40 ff ed 2c c0
       1.4133583 -1.8979604 4.091461 -2.7020261
000040 c6 51 8d 3f 00 b8 94 3c 5b 0e b0 bc fc a7 a3 3d
       1.104058 0.018154144 -0.02149122 0.07991025
000050 e1 bd 11 3f 44 65 bc 3d 4d 60 60 bf 4d cb b6 3f
       0.5693036 0.091990024 -0.87646943 1.4280792
000060 ab 0d 43 be af b1 71 be b8 e7 f1 3c de da cf 3f
       -0.19048183 -0.23602937 0.029529437 1.6238668
000070 74 f8 b6 bf a1 b5 44 40 ec a0 a7 bd 38 cd f0 bf
       -1.4294572 3.0735857 -0.0818499 -1.8812628
000080 60 5f ce bc 7d 04 61 bf 72 5d eb 3f 0f 79 15 40
       -0.025191963 -0.87897474 1.8387892 2.3355138
000090 ea 24 72 3f 93 44 1a 40 1a cc 8c 3d ef f9 b4 3e
       0.94587576 2.4104354 0.06874867 0.35346934
0000a0 9b f3 8c 3f f3 c9 85 bf c8 7c 97 bf 6d d1 a2 3f
       1.1011842 -1.0452255 -1.1834955 1.2720162
0000b0 4a 4b 44 3f 45 37 63 3f 64 f3 ba 3d e6 a4 9a bd
       0.7667738 0.8875621 0.09128454 -0.07550983
0000c0 f5 bd f3 bf ed 2f 1c 40 1b 2c c5 3f ac e2 ef be
       -1.9042345 2.4404252 1.5404085 -0.46852624
0000d0 8e 57 eb 3f b6 43 91 bf 05 ac 83 3f bf 8e 48 c0
       1.8386095 -1.1348789 1.0286871 -3.1337125
0000e0 41 26 1e 3d 0e 2e 88 bf d1 b8 b4 3f 18 6b 17 bd
       0.0386107 -1.0639055 1.4118901 -0.036967367
0000f0 e3 05 19 40 ab fb 6a bf ac d4 f5 be bd 34 86 bc
       2.3909843 -0.91790265 -0.48013818 -0.01638257
